spring22/Advanced Deep Learning/TP3/model_state_old.pth (torch, 442149 bytes, 6 tensors)

layers.0.weight f4 [50, 256]
000000 9a 74 2c 3e 30 33 8c 3e 96 dd 02 be e3 16 93 3e
       0.16841355 0.27382803 -0.12779841 0.287284
000010 a8 35 c5 3e c0 78 30 bf a5 47 85 3d f5 f8 f7 3e
       0.385175 -0.6893425 0.06507806 0.48432127
000020 a3 9d c0 bd cf fb c5 3e 53 40 25 3e 9a 6d a0 bb
       -0.09405067 0.38668677 0.16137819 -0.004895878
000030 4f 0a bc be fa 9b cd be ba ca e2 be 7b 5e 45 3d
       -0.36726615 -0.40158063 -0.44295293 0.048185807
000040 82 f6 16 bf ea 12 98 3e 5a d5 06 be b1 53 db 3d
       -0.5896989 0.2970193 -0.13167325 0.10709322
000050 df 78 84 3e 9a a7 5d bd f0 37 a9 be 6a 85 1c 3e
       0.25873467 -0.054114915 -0.3305049 0.15285268
000060 f3 1f 56 3e 8b 8e ea bc de 6b e7 be 93 1f b1 3e
       0.20910625 -0.028632423 -0.45199484 0.34594402
000070 89 35 de 3e 22 39 88 3e ab 81 83 3e 8f f1 a9 3e
       0.4340022 0.2660609 0.25684866 0.33192107
000080 64 e7 89 3e a4 14 20 3e 19 cb 58 3e 69 6c 1d bd
       0.2693435 0.15632874 0.21171226 -0.038433466
000090 ab 13 c2 bd 8f 4a bc be 0e d6 d5 3e 31 a4 b5 be
       -0.094764076 -0.36775634 0.41764873 -0.3547683
0000a0 06 2b 82 bd cf 0e 26 3d ef 9d b5 bd fd 5f b9 bd
       -0.06355862 0.040541466 -0.08868014 -0.090515114
0000b0 df f7 a2 3e a6 76 bf bc 2d dd 01 be 7e 15 7a 3e
       0.31829736 -0.023372006 -0.12682028 0.24422261
0000c0 37 2c 59 3c df 6f fa be c4 a3 92 3e 23 25 c0 be
       0.013255171 -0.48913476 0.28640568 -0.37528333
0000d0 98 a6 33 bd 01 00 90 3d b2 ff 3e be e4 bc 44 3d
       -0.043860048 0.07031251 -0.18652228 0.048031703
0000e0 37 79 7c 3d 22 9f a2 be 2c a5 3f 3e a1 1d 49 be
       0.061639037 -0.31762034 0.18715352 -0.19640209
0000f0 42 6c 33 3e 01 5e 90 be 1e 9f 9b bc 0f 73 70 3e
       0.17521766 -0.2819672 -0.018996771 0.23481391
000100 be a5 fc be 6a 09 8d 3e d1 8f c9 3d b4 75 3c 3e
       -0.493452 0.27546245 0.09841884 0.18404275
000110 f7 71 9a 3e a6 2e 3a 3e a8 e0 32 3e 9b 1f cb 3e
       0.30165073 0.18181857 0.17468512 0.3967255
000120 2e 0b 46 3e 53 f5 b0 3e 16 0f aa be 14 03 36 3e
       0.19340202 0.34562168 -0.33214635 0.17774612
000130 c9 28 10 bf 52 0f a2 3d f5 f3 5e be 9a d7 57 3c
       -0.56312233 0.07913078 -0.2177275 0.013173962
000140 ec 42 7b be 16 f7 44 be 25 df ae be 17 ec ba 3e
       -0.24537247 -0.19234881 -0.3415462 0.36508247
000150 18 9f c4 be c9 12 6d 3e 10 e0 15 3e 96 15 c4 bd
       -0.3840263 0.23151697 0.14636254 -0.0957443
000160 0c 43 38 bd 34 e9 11 bf 19 f7 8f be 23 30 a7 bd
       -0.044985816 -0.56996465 -0.28118208 -0.08163478
000170 88 bf 4a 3e f2 7a c2 3a 14 94 b3 be 57 36 44 bd
       0.19799626 0.0014837666 -0.35073912 -0.047903385
000180 1f c5 9f 3e d4 63 68 3d d6 5a 17 bd e6 f0 07 3e
       0.3120508 0.05673583 -0.036951862 0.13275489
000190 af 99 0e bf 9d de d8 bd 8c 01 68 3e 2f 8a ae 3e
       -0.5570325 -0.10589335 0.2265684 0.340898
0001a0 e3 3f c1 3d 0c b5 fd 3d 74 cb cc 3e 1c 8e c9 be
       0.094360135 0.123880476 0.39998972 -0.39366233
0001b0 71 03 9a be 93 b8 43 bf e4 c8 d1 bc 13 e0 f8 be
       -0.3008075 -0.7645351 -0.025608487 -0.48608455
0001c0 73 dc f8 3d 0b 38 83 3e 2a 97 a5 3d d2 2d 39 be
       0.12151422 0.25628695 0.08085473 -0.18083885
0001d0 8b 7f ac bd 41 5e 20 be 82 c6 f1 3d 19 7b 80 bd
       -0.084227644 -0.15660955 0.118054405 -0.06273479
0001e0 8c da c7 bd b5 b9 94 be d3 72 eb 3d 23 d9 61 be
       -0.097584814 -0.29047933 0.1149651 -0.22055487
0001f0 c1 f7 cf be 14 27 bd 3d ec 71 f5 3c d7 de 38 bc
       -0.4061871 0.09235969 0.029961549 -0.011283598
000200 17 96 76 3e da b2 3c be a2 d8 b8 3d 8a 60 e6 be
       0.24080692 -0.18427601 0.090256944 -0.44995528
000210 3f 77 48 bc 42 20 c8 bd fa 27 9a 3e c2 6e 29 3e
       -0.012235462 -0.09771778 0.30108625 0.16546157
000220 87 af be be 4b d9 9a be 6d b4 6e 3e 3a dd c2 3e
       -0.37243292 -0.30243906 0.23311014 0.38059407
000230 f9 fb 94 3e d5 66 0a bf 8d 4b 03 be 76 a3 5e be
       0.2909849 -0.5406316 -0.12821789 -0.21742043
000240 7f aa 18 3e f5 20 e0 3d bd e0 07 3e 03 98 b7 3e
       0.14908789 0.10943786 0.13269325 0.35858163
000250 87 1c e2 bd 41 78 ff bb 04 ef ea be c8 e8 7f 3e
       -0.110405974 -0.007796318 -0.4588548 0.24991143
000260 85 15 49 3e a2 7e 30 3e 42 66 70 bd 38 72 53 3e
       0.19637115 0.17235807 -0.05869127 0.2064904
000270 01 6c 4f 3d 01 4b 2c 3e 3e 00 0c bf 97 ef 72 3e
       0.05064011 0.16825487 -0.5468787 0.23724209
000280 82 e6 67 bc fe 1d 2d be a9 8b 9f be ac f4 56 3e
       -0.014154078 -0.16905972 -0.3116124 0.20991772
000290 68 c1 75 be 50 14 1a 3e 35 f1 d3 be c4 35 99 3d
       -0.2399956 0.15046811 -0.41394964 0.07480958
0002a0 ff 9d ad bd 02 ec e9 be 43 b9 bc be bd b3 98 3e
       -0.08477401 -0.45687872 -0.36860093 0.2982463
0002b0 1c a6 2a 3e dd 67 a4 3e 3c b4 ab bc 84 b4 32 3e
       0.16664928 0.3211049 -0.020959966 0.17451674
0002c0 87 ff 55 3d 60 00 ca bd e5 9f 9f 3e 50 ae 07 bf
       0.052245643 -0.09863353 0.31176677 -0.53000355
0002d0 7f ae 85 be 0a 8f 8c 3e 7a 00 b7 bd 29 86 2a be
       -0.26109692 0.2745288 -0.08935638 -0.1665274
0002e0 ae 02 2f 3f ac 8c 15 be 5c 31 a6 bd 38 66 82 be
       0.68363464 -0.14604443 -0.08114883 -0.25468612
0002f0 a8 47 e6 be 1a 77 dd bd f5 70 26 3e a4 1c 14 3e
       -0.44976544 -0.108137324 0.16254027 0.1446405
000300 93 25 9b 3e 72 53 00 3e 58 5b 8b bd 59 65 14 3c
       0.30302104 0.12531832 -0.06804532 0.009057366
000310 48 74 fa 3d aa 29 28 bf 5d 4a da bd 85 8f a4 3e
       0.1222921 -0.65688574 -0.10658715 0.32140747
000320 f2 a9 18 bf 57 08 83 3e 8a e8 9b 3e f0 dc a5 3d
       -0.59634316 0.255923 0.3045085 0.08098781
000330 c1 81 55 3e 46 d1 41 bd ce ea 96 3e 08 11 7c be
       0.20850278 -0.04731872 0.29476017 -0.24615872
000340 ba bb fb 3d 3e f9 83 3e 66 f6 01 be bb 54 02 3f
       0.122916654 0.25776094 -0.1269165 0.5091054
000350 1f 9d 96 bd 23 5a bd 3e e3 49 d2 3d ab 3c b4 be
       -0.07354187 0.3698283 0.10267999 -0.35202536
000360 78 1b fa 3e 51 2f 61 bd b7 a5 4b be b9 8d 73 3e
       0.48849082 -0.054976765 -0.19887434 0.23784532
000370 0e 3d 16 bf 35 d3 b9 be 14 1f 8e bd d3 91 9d 3e
       -0.5868691 -0.3629395 -0.069395214 0.30775318
000380 e9 44 dc be f7 a3 2b 3e 74 52 07 be b1 25 a8 3d
       -0.43021324 0.16761766 -0.13215047 0.08210314
000390 fd ef a0 be b6 85 87 3e 0c e8 c5 3d 8d 6e aa 3d
       -0.31433097 0.264692 0.096634 0.08321867
0003a0 83 08 7f be a5 bd 5f be 43 8c 76 3e 56 b0 f9 bd
       -0.2490559 -0.21849687 0.24076943 -0.121918365
0003b0 6f 16 5b 3e c8 7e 49 3e 07 7f 5e 3e 0e 4b cc be
       0.21395276 0.1967727 0.21728145 -0.39901012
0003c0 92 34 ea be 29 40 0b bf 4e 40 b0 bc 53 a0 0e 3e
       -0.45743233 -0.54394776 -0.021515038 0.13928346
0003d0 f2 6e 33 3e 21 2f ea 3e c0 5d b5 bd b7 6f b5 3e
       0.17522791 0.45739082 -0.08855772 0.35436794
0003e0 a6 42 a3 3e da b9 19 bf 30 4b 88 be 39 07 13 3e
       0.31886786 -0.6004921 -0.26619864 0.14358224
0003f0 b3 d3 5e 3e 32 27 77 3e 86 76 5a 3e db fa aa bd
       0.21760444 0.24136046 0.21334276 -0.08348628

layers.0.bias f4 [256]
000000 7e a0 74 3c 1d 83 89 bd cf e3 0b bb e8 1a 82 bd
       0.014930842 -0.06714461 -0.0021345501 -0.06352788
000010 ef af 47 bd b2 fc c1 3b e9 ae 04 3d 5f 6b a0 bd
       -0.048751768 0.005920016 0.03239337 -0.078329794
000020 5d bc 09 3d 82 6b 74 3d 35 95 a3 bd 26 fe 1c 3d
       0.033626903 0.05967284 -0.07987443 0.038328312
000030 65 33 a9 3c d3 74 9c 3c 00 23 40 3c c7 99 a9 bd
       0.02065439 0.019098675 0.011727095 -0.08281284
000040 31 e1 75 3c 3a a4 9e 3c 7e e7 52 3c 23 e7 28 3d
       0.015007303 0.019365419 0.012872575 0.041236054
000050 75 21 70 3c 29 2b 01 3d 10 8c 61 3b 0f 2f 76 3c
       0.014656414 0.0315353 0.003441576 0.015025868
000060 36 c3 21 bd 53 cd 1f 3d 39 a6 a0 bd 3d 75 2b 3c
       -0.03949281 0.03901417 -0.078442045 0.0104649635
000070 b9 03 f1 bc cd 5f 8f 3c ab b2 d1 bc 76 34 e2 3c
       -0.02942072 0.017501736 -0.02559789 0.027612906
000080 08 83 a3 3b 35 53 c3 3c 40 58 9b bd ce 4d 27 3c
       0.0049899854 0.023843387 -0.07585192 0.010211421
000090 eb 70 a7 bd 5b af 43 bd 9f e6 46 3c dd e1 4a bd
       -0.08175834 -0.047774654 0.012139945 -0.049531806
0000a0 79 1b d1 3a e0 72 a3 3c a1 d2 ec bd d0 15 c4 3b
       0.0015953622 0.019952238 -0.11563612 0.0059840456
0000b0 11 7b 07 bc a1 b8 95 bd b6 44 f5 3c 84 a7 80 bd
       -0.008269087 -0.07310606 0.02993999 -0.06281951
0000c0 c1 85 75 3c 30 60 b3 bd a2 f7 59 3c cf 12 bb 3c
       0.014985503 -0.08758581 0.013303669 0.022836117
0000d0 ba d3 2d ba 98 68 3f bd 96 49 02 3d 35 20 a7 3b
       -0.0006630976 -0.046730608 0.03180846 0.005100275
0000e0 4d 6c 69 bd f0 f4 83 3b df 65 9f 3c c1 ac 83 3c
       -0.05698805 0.0040270016 0.019457756 0.016073586
0000f0 f9 e0 11 3d 7b b0 d0 3c 46 29 f5 3c 27 b7 a5 bc
       0.03561494 0.025474777 0.029926907 -0.020228935
000100 fd 5b 81 bd 24 3c d1 3c 4f b1 64 3c a1 c1 6c bc
       -0.063163735 0.025541373 0.013958289 -0.014450462
000110 41 6e c5 3c 6d 5d 05 3d f7 c1 53 bd 98 3c 15 bb
       0.024100425 0.0325598 -0.05169865 -0.0022771712
000120 7c 96 94 bd c7 87 80 3c 58 36 8d 3c 2a 1b 79 bd
       -0.07255265 0.015689744 0.017237827 -0.06081692
000130 f8 1a a5 3c 83 27 6e bd 33 00 a7 bd 6f 5a 93 3c
       0.020154461 -0.05814315 -0.08154335 0.017987458
000140 8d 1d b4 bd e4 44 ae 3c cc 28 52 bd 16 37 58 3d
       -0.08794699 0.021273084 -0.05130844 0.05278691
000150 d8 d0 91 3c f9 8b 89 bd 24 c6 f7 3c 23 3c 31 bd
       0.01779978 -0.06716151 0.030245848 -0.04327024
000160 a7 fa 85 3d e4 59 cf bc ba 0f 08 3d 81 d1 17 3d
       0.06541949 -0.025311418 0.033218123 0.037065033
000170 64 5e 25 3d b8 5c 7f 3c a3 a9 7a bd fa f4 dc bb
       0.04037322 0.015586071 -0.061196934 -0.0067430707
000180 fb 5b 94 3c 3e b7 77 bd ea 81 16 bd ee 4f e7 3c
       0.018110266 -0.060477488 -0.03674499 0.028236356
000190 cb 5a 6e bd bb 53 00 3d 16 6b bf bc e9 f4 80 3d
       -0.058192056 0.03132985 -0.023366492 0.06296713
0001a0 34 d9 7b bd 76 15 2b 3d 2b c7 1f 3d 11 d7 01 3d
       -0.061486438 0.041768514 0.0390083 0.031699244
0001b0 4b b9 03 3d 6e 5f 77 bd 09 19 fa 3c 47 a8 71 bd
       0.03215913 -0.060393743 0.030529516 -0.058998372
0001c0 ab 72 4f 3c da d6 d1 3c 2b 5f 28 3d 20 c3 03 3d
       0.012661616 0.025615145 0.041106384 0.032168508
0001d0 5f 8f cf bc cd e8 c7 3c 4f 88 99 bd c9 66 7e bd
       -0.02533692 0.024403 -0.07496702 -0.062109742
0001e0 45 6a 00 3d 2b 59 8a 3b 5d 0e ec 3c c0 02 3e bb
       0.031351347 0.0042220554 0.028815443 -0.0028993338
0001f0 c3 a1 2b 3d f3 2f 92 bd 74 f4 80 bd df de 1d bd
       0.041902315 -0.07138052 -0.06296626 -0.038542625
000200 62 62 26 bd 24 84 1c 3d a7 2a 05 3d 92 c5 9c 3c
       -0.04062117 0.038211957 0.03251138 0.019137178
000210 e3 fa b9 3c ec a6 f4 3c 07 d6 6b 3c 3a 98 dd bc
       0.02270264 0.02986475 0.01439429 -0.027050126
000220 c1 27 37 bd 19 bb 5a 3d 76 f4 82 bd cc 49 e6 3c
       -0.044715647 0.053401086 -0.063942835 0.028111361
000230 6b 6b 25 bd 70 2a aa bd 74 64 99 bd 3c 0e 8f bd
       -0.040385645 -0.083088756 -0.07489863 -0.06985137
000240 9b 62 72 bd e7 3e 53 bc 9a 7c 0c 3d 22 69 cd 3a
       -0.05917607 -0.012893415 0.034298517 0.0015671591
000250 7f e9 18 bb 84 5b cd bc 99 40 f1 3c 72 bd 7e 3c
       -0.0023332534 -0.025068052 0.029449748 0.015548097
000260 b6 e9 c0 3c ad ee 19 3d 4d 7b 0f 3c be 7d 77 bd
       0.023548942 0.037581135 0.008757425 -0.06042265
000270 ac 9e 83 3c a9 68 2e bd b4 c2 87 bc a0 71 3d 3c
       0.016066872 -0.04258028 -0.016572334 0.011562735
000280 56 8d 02 3d 8f 36 39 bd c2 2d 8c bd 24 92 aa 3c
       0.03187307 -0.045218047 -0.06844665 0.020821638
000290 bf 90 58 3c 47 61 92 bd 61 3c 80 3c 1a 42 c5 3c
       0.013218104 -0.071474604 0.01565379 0.024079371
0002a0 b4 23 74 bd 3d 0d 3b 3c 83 fc cf bc 24 b6 1d bd
       -0.05960436 0.0114167305 -0.025388962 -0.03850378
0002b0 14 a8 13 3a 7f b8 e6 3c f5 b1 7e 3b 51 ac 03 bd
       0.00056326506 0.028164146 0.0038863395 -0.032146756
0002c0 39 f8 cf 3c 9d 9b 2e bd f2 95 49 3c b2 26 e4 3c
       0.025386916 -0.042628873 0.012303816 0.027850483
0002d0 a0 a3 2b 3d 6b 25 89 3c d7 bb 64 bd a4 b1 1f 3d
       0.04190409 0.016741475 -0.0558432 0.03898777
0002e0 c5 40 a3 bc 03 96 17 3c ac 38 0d 3d 6a fe 3d 3c
       -0.019928345 0.009252074 0.034477875 0.011596302
0002f0 ef 66 85 3c dd dc 79 3c a6 87 6f bd 6d ce 25 3c
       0.016284434 0.015250412 -0.058478974 0.0101200165
000300 af c5 77 ba ab 6b 61 bd 1e c4 56 3b a9 83 ad 3c
       -0.00094517594 -0.05503432 0.0032770704 0.021180945
000310 e0 6f 30 3d b3 0f 69 3c d0 98 0d 3c 0e 2e 51 3c
       0.043075442 0.014224934 0.00864239 0.012767328
000320 6a 74 8f 3c 38 7b 73 3c 44 92 9c bd 21 9c 9b 3c
       0.017511565 0.014860921 -0.076450855 0.018995347
000330 59 a0 92 3c bc f2 a1 3c 14 35 1a 3d 58 9a 39 3d
       0.017898725 0.019769065 0.037648275 0.04531321
000340 13 66 a1 bd 13 d8 c2 3c b0 0f 3d 3c 8c 11 11 3c
       -0.07880797 0.023784673 0.011539385 0.008854281
000350 03 ad 04 bd 81 3b 86 bd a8 74 81 bd 4e 05 86 3c
       -0.03239156 -0.06554318 -0.063210785 0.016359951
000360 89 de c9 3c a7 9a d4 bd e1 e2 cb 3c 7a 32 38 3d
       0.024642246 -0.1038106 0.024888458 0.044970013
000370 5f 1f f2 3c bd 17 87 3c 4d d0 b9 39 82 05 bc bd
       0.029555975 0.016490811 0.00035441146 -0.09180738
000380 21 16 f5 3c 55 88 04 3c e2 e2 00 bd ee 4b 5c bd
       0.029917778 0.008089145 -0.031466372 -0.05378335
000390 8b a5 1b 3d e4 ac 05 3d 8a ab ee bc 68 93 35 3d
       0.03799967 0.032635584 -0.02913453 0.04433003
0003a0 5b 29 32 bd cb 81 8c 3c b9 32 9e bd 1b ce 79 3c
       -0.04349647 0.017151734 -0.07724518 0.015246893
0003b0 85 bf 43 bd ae d9 53 bd 97 a7 30 3d fb 76 71 bd
       -0.04779007 -0.051721267 0.043128576 -0.05895136
0003c0 0f 88 79 3b da 45 95 bd 44 fe bf bb f3 31 93 3c
       0.0038075482 -0.07288714 -0.0058591682 0.017968154
0003d0 2a 2b 34 3c 4f 67 c0 3c 8b eb 58 bd fd 3c 2a bc
       0.010996619 0.023486761 -0.052959006 -0.010390517
0003e0 63 06 77 bd a0 96 b0 3c bf cf 21 bd 55 a4 99 3c
       -0.060308825 0.021556199 -0.039504763 0.018755117
0003f0 2b 1a c8 3d 09 a1 90 3c e0 c6 9f bd b8 77 64 3d
       0.09770616 0.017654913 -0.07801604 0.055778235

layers.1.weight f4 [256, 256]
000000 80 af 68 3e d0 d7 21 bd 4d 32 f9 bd fd 4c 23 be
       0.22723198 -0.039512455 -0.12167797 -0.15947337
000010 d6 98 54 be d6 bc 89 bc 58 e4 57 bd 97 4c cb be
       -0.20761427 -0.016813677 -0.052708 -0.3970687
000020 d6 15 32 3d 95 e0 37 be da d4 37 bf d2 98 29 be
       0.043477856 -0.17956765 -0.7180916 -0.16562203
000030 3b e1 e2 bd 32 5d 04 be f5 7d 82 3c 8e a4 28 bb
       -0.110781156 -0.12926176 0.015929202 -0.0025732848
000040 a5 d7 c9 bd 8b 23 be 3e 8e fb f9 bd 64 6f 98 3e
       -0.09855584 0.37136492 -0.122061834 0.29772484
000050 af 2e 58 be 37 0f 18 3e 25 2c 8a bc 77 07 44 be
       -0.21111558 0.14849554 -0.016866753 -0.19143473
000060 96 19 54 bc ec 7c b9 3c dd d5 ef be 81 9f bb bd
       -0.012945553 0.022642575 -0.46842852 -0.09161282
000070 63 30 8d 3c 79 ae dd bd 8d 4c ad bd 01 19 a2 3e
       0.017234987 -0.10824294 -0.084618665 0.316597
000080 bb 99 07 be 26 c8 e1 bc 0e 0a e1 bb 09 f9 1f be
       -0.13242237 -0.027561259 -0.0068676537 -0.15622343
000090 93 2a 68 bd 4a 65 0d 3e e5 ef 47 bc 92 f4 1c be
       -0.056681227 0.1380817 -0.012203191 -0.15327671
0000a0 f8 0b 58 3e 05 0e 0a be 6c 85 e4 bd 75 ff 9b 3e
       0.21098316 -0.1348191 -0.11158261 0.30468336
0000b0 c1 87 0b be c4 b9 a6 3e b8 29 50 be 2c 78 73 bd
       -0.13626005 0.32563603 -0.20328414 -0.059440777
0000c0 d0 20 6d 3e 9a d3 b4 3c 5d 81 55 be 76 41 74 3d
       0.23157048 0.022073556 -0.2085013 0.05963274
0000d0 7d b3 61 bd 39 30 ac 3d 17 09 06 3e cc 72 52 3e
       -0.055102814 0.08407635 0.13089405 0.20551604
0000e0 31 8d 79 3e da 42 82 bd 51 ef 88 3e dc 31 ea bd
       0.24370266 -0.06360407 0.26745084 -0.11435291
0000f0 93 ca 89 be 4b 2c 52 be 8d e7 2e 3d 51 d0 2f ba
       -0.26912364 -0.20524709 0.042701293 -0.0006706762
000100 69 58 50 be 92 a0 ea be c8 57 e8 bd c7 60 f6 3d
       -0.20346226 -0.4582563 -0.11344868 0.120301776
000110 5c 51 38 3e 0e 75 9a 3c a5 0a f3 bb 60 76 c9 3b
       0.17999786 0.018854644 -0.0074170404 0.0061481446
000120 f9 aa 82 3d 9d b6 c9 be 83 a3 b9 3d 4b 9d 8c 3e
       0.06380267 -0.39397135 0.090643905 0.27463755
000130 6b c9 b0 3d 9e 44 f4 be f8 22 23 3d 08 f6 5b be
       0.086321674 -0.477086 0.03982827 -0.21480572
000140 2a 8d d2 bd b2 bc d5 be 77 9f 3d 3d a8 50 5b bf
       -0.10280831 -0.41745526 0.046294656 -0.85669947
000150 80 f8 9d be 65 01 fe bb 4f af 94 3c da 69 0b 3e
       -0.30853653 -0.007751631 0.01815 0.13614598
000160 b5 f3 29 be 63 55 12 3e f2 f1 af 3c db 4c c3 3e
       -0.16596873 0.14290385 0.021477673 0.38144574
000170 53 46 c3 be 4d c1 a2 bd 45 82 8e 3e ff a2 17 be
       -0.3813959 -0.079470254 0.27833763 -0.14808272
000180 f8 07 f8 bd e5 5b 94 3c 55 15 84 be b0 7b ee bd
       -0.12110895 0.018110225 -0.25797525 -0.11644685
000190 7d c7 c2 3d 1f ef 8c be b0 82 a6 bd 7e 80 50 be
       0.095107056 -0.27526185 -0.081303954 -0.20361516
0001a0 0d ce 40 3e 0e 8f f4 3d 51 12 6e bd 44 53 e7 be
       0.18828602 0.11941348 -0.058122937 -0.45180714
0001b0 6a 9d 01 bf 13 cd ef bd ce c5 31 bf 9a 00 5a bd
       -0.5063082 -0.11709037 -0.6944245 -0.05322323
0001c0 65 3c 27 bc 45 6a 34 3e 96 18 ea 3d 13 47 42 3d
       -0.01020727 0.17618664 0.11430471 0.047431063
0001d0 07 67 d2 bd 95 74 b0 3d b0 35 d3 be 72 8b 81 3d
       -0.10273557 0.08615986 -0.41251898 0.06325425
0001e0 45 0e 81 3e 0a cb 25 3e 82 01 08 3e 21 24 32 be
       0.252062 0.16190735 0.13281825 -0.17396595
0001f0 d6 50 12 3e d0 96 ed bd 58 4b 38 bd 10 f1 ea bd
       0.14288649 -0.11601031 -0.04499373 -0.1147176
000200 1d dc 46 be bf 5c 01 be a2 3c 82 be 73 3f 89 3d
       -0.19419904 -0.12633036 -0.25436884 0.06701555
000210 f4 a2 72 bd 04 5c f1 bd 23 57 00 3d ae 53 3c 3e
       -0.059237435 -0.11785129 0.0313331 0.18391296
000220 84 0a 02 bc 29 6a 47 3e 65 68 86 bd 52 51 3b be
       -0.007937077 0.1947409 -0.065628804 -0.1829274
000230 4a b1 59 be 25 4a 92 be 66 17 41 bc b5 98 8e 3d
       -0.21259037 -0.28572193 -0.011785364 0.0696272
000240 7b 7d 26 3d b3 1e f7 ba ac f8 79 be d0 34 38 3e
       0.04064701 -0.0018853754 -0.24411267 0.17988896
000250 e8 8f 1b be e5 99 8c bd 5f e2 9b 3d 6a 68 91 bd
       -0.15191615 -0.068652906 0.07611536 -0.070999935
000260 91 63 14 3e dc 29 b3 3c 41 dc 7e bd b0 0b c0 bd
       0.14491107 0.021870546 -0.06222177 -0.09377229
000270 5d ba d2 bd e4 d6 b4 3d d5 fe 15 be f9 b9 d7 bd
       -0.10289452 0.0883005 -0.14647992 -0.10533518
000280 07 26 2c be d8 5e a9 bd da b7 27 3e 3c 69 a2 bd
       -0.16811381 -0.08270043 0.16378728 -0.07930228
000290 bf b2 0a 3d f6 ac 09 bd 8d 28 47 3e 50 ba fe be
       0.03386187 -0.033612214 0.19449063 -0.4975152
0002a0 94 ce 6a be 77 24 50 be f9 cf 31 bf f6 3c 87 be
       -0.22930366 -0.2032641 -0.69457966 -0.26413697
0002b0 6c 35 6e bd 8e 18 a0 3b e7 54 38 3e 0b 2d a9 3d
       -0.058156416 0.0048857396 0.18001138 0.082605444
0002c0 64 60 02 be c1 6f 55 3e 38 dc c9 3d 28 ed e4 3b
       -0.12732083 0.20843412 0.098564565 0.006986279
0002d0 a0 89 2d bf c6 40 a0 be 46 62 d7 bc 10 cd f8 3e
       -0.67788124 -0.31299418 -0.026291978 0.4859395
0002e0 98 78 cb bd 00 de a5 3d 57 1e f3 be b0 74 8a bc
       -0.09935111 0.08098984 -0.47484085 -0.016901344
0002f0 69 75 07 be 77 9e c4 3d 35 71 ee be d3 6c 50 3e
       -0.13228382 0.09600537 -0.46570745 0.20354013
000300 6f 5e 3a 3d f7 e4 6a 3d 69 14 17 be 02 47 6d 3e
       0.045500215 0.057347264 -0.1475388 0.23171619
000310 c4 7b bc bc e2 da f7 bc 02 f2 1c be fc e7 59 3e
       -0.023008235 -0.030255739 -0.15326694 0.21279901
000320 00 03 a9 bd 85 40 54 bd 35 05 cc bc ca 2e 01 3e
       -0.08252525 -0.051819343 -0.024904827 0.12615505
000330 c6 b8 3f 3d 88 26 cb bd 6f 53 50 bd 1a cf 0f be
       0.046807073 -0.09919459 -0.05086082 -0.14043847
000340 6f b7 27 be d5 2c 10 be a2 19 09 be 99 58 30 be
       -0.16378568 -0.14079602 -0.13388684 -0.17221297
000350 c4 4a 87 bc 80 09 66 3d 0d e5 e1 bb 9f 80 d5 3d
       -0.016515143 0.056161404 -0.00689376 0.10424923
000360 8a 87 c7 3d 3a 78 f9 bd 0e f1 be bd 93 77 8d 3d
       0.09742649 -0.121811345 -0.09323321 0.069075726
000370 f3 44 84 be d7 65 84 be ac e4 29 3d 78 c1 8f 3c
       -0.25833854 -0.25858948 0.041477844 0.017548308
000380 26 fb 23 3c 3e 03 99 be 99 1a 1e be 73 d3 f5 be
       0.010008609 -0.29885286 -0.15439834 -0.48012885
000390 00 52 6c 3e e7 ea a2 bc 3b a2 fd bd 6e 13 e0 bd
       0.23078156 -0.0198874 -0.12384459 -0.10941206
0003a0 1e 21 f8 be c3 5a 16 be e3 b2 c4 3d 6c 3f 89 bd
       -0.48462766 -0.1468306 0.096044324 -0.0670155
0003b0 ab 84 1d 3e 86 1e 8f 3e 5b 23 23 bd 8c b3 1a be
       0.1538264 0.27952975 -0.03982864 -0.15107554
0003c0 39 20 0b be 8f 15 5a be e3 0a 41 be 52 61 8a be
       -0.1358651 -0.21297286 -0.18851809 -0.27027375
0003d0 2e d7 ee bd a8 1f a5 be 07 77 01 3d 82 a9 1c be
       -0.11662136 -0.32250714 0.031607654 -0.15299037
0003e0 9f f6 0f 3e 49 cd 5b 3e 55 97 6b bd 6a cd 37 be
       0.14058922 0.21465029 -0.05751737 -0.17949453
0003f0 86 5d 1a 3e 52 29 46 bd b2 29 cb 3d 24 c8 85 3e
       0.15074739 -0.04837925 0.09920062 0.26129258

layers.1.bias f4 [256]
000000 d2 92 df bd e3 09 1c 3e 42 08 39 bc fe e1 62 bc
       -0.109166756 0.15238146 -0.011293473 -0.013847826
000010 df c5 fd 3b 24 e8 1e bd 35 23 92 bd ee 01 ae 3d
       0.0077445353 -0.038795605 -0.071356215 0.08496462
000020 5c 2b d0 bd a9 5a a9 bd b3 b6 09 3d 80 e8 d1 3d
       -0.1016452 -0.08269245 0.0336215 0.10249424
000030 4b f1 81 be ef 10 26 ba fe 10 b7 bd bf 1e c1 bb
       -0.25379404 -0.0006334921 -0.08938788 -0.005893558
000040 20 b5 76 bd b1 09 90 be c0 44 e4 bc a6 ab 93 bd
       -0.060231328 -0.28132394 -0.027864814 -0.07210474
000050 ef ed 27 bd 27 0b d9 bd ea 80 98 3c 57 07 9e bd
       -0.040998396 -0.1059783 0.018616159 -0.07716244
000060 7c 69 c8 bc bb 29 a8 bc 2e 3f 8e bd f3 21 65 bd
       -0.024464361 -0.020527711 -0.06945644 -0.05594058
000070 e5 d3 46 bd 08 fc 10 3d 45 c2 9c bc c6 9f 01 3e
       -0.048541922 0.035396606 -0.019135604 0.12658605
000080 20 6a be be 4e fe 00 bd c4 6b 16 be 34 e8 ed 3c
       -0.37190342 -0.031492524 -0.14689547 0.029041387
000090 a7 f9 a1 bd 6c 8e 32 3d 9f cf 16 be 76 3f 96 bc
       -0.079089455 0.043592855 -0.14727639 -0.018340807
0000a0 3a 61 e8 3d ef c5 e9 3c 0c cf 22 3c a5 1c e5 3c
       0.113466695 0.028536765 0.009937059 0.02796776
0000b0 04 c8 f7 bc 4c 4c 7b 3d a9 25 42 3e 4c be 51 3d
       -0.030246742 0.06135206 0.18959679 0.051206872
0000c0 34 8f 97 3c be bb 51 bd 99 11 15 3c f3 bd fe bc
       0.018500902 -0.051204436 0.009098434 -0.031096434
0000d0 67 ef 0e be 43 cd 7f bd 0b 24 e5 bc 52 7e 8a bd
       -0.13958512 -0.062451612 -0.027971288 -0.06762375
0000e0 b7 b8 25 bd 85 8d 85 bd 07 47 fd bd 15 f5 2f ba
       -0.04045936 -0.06521133 -0.12367063 -0.000671224
0000f0 82 74 a9 3d 51 4f a6 bd 3b 9c 95 bd 1d 94 82 3c
       0.08274175 -0.08120597 -0.07305189 0.015939767
000100 7a a5 0d bd 92 a7 b5 3d 95 a8 23 be d0 3d a9 bd
       -0.03458164 0.08869852 -0.15982278 -0.08263743
000110 c3 7d 15 3c 73 9d 1a 39 a5 f9 01 3d fe b4 20 3d
       0.009124222 0.00014745239 0.03173222 0.039235108
000120 b2 4e 5c bd 95 85 5e 3d d2 04 83 3d cd f4 82 3c
       -0.053785987 0.054326613 0.06397404 0.01598587
000130 63 aa 97 bd 12 7e 10 3c 71 52 ce 3d da f8 ca bc
       -0.074055456 0.00881912 0.10074318 -0.024776865
000140 46 ab 9d bc 5d 7c 6d bd da 2f 10 be 56 bd 19 bd
       -0.019246709 -0.05797993 -0.14080754 -0.03753408
000150 3c f9 80 3d 17 f0 f3 bd 02 b4 e1 bd ee 94 a2 be
       0.06297538 -0.11911028 -0.11020662 -0.3175425
000160 23 d0 b6 bd dc 7b 6b 3d 54 99 18 3d 4b 71 53 bd
       -0.08926418 0.05749117 0.0372556 -0.051621716
000170 a3 91 7c be 16 f0 c6 3c 57 41 5e bd 1c c2 e1 bd
       -0.24664931 0.024284404 -0.05426153 -0.110233516
000180 84 83 e3 ba 81 41 ab 3d d5 e6 91 bb fc 0e 8a bd
       -0.001735792 0.08362103 -0.004452566 -0.06741139
000190 e8 88 c7 3d c1 30 1e bd ed b7 c4 bd dc 28 00 be
       0.0974291 -0.038620714 -0.096053936 -0.12515587
0001a0 65 a0 11 bd 85 65 4b bd 77 71 4a 3b db dc d4 bd
       -0.035553355 -0.049657363 0.0030890384 -0.10393687
0001b0 c0 18 b1 3c f5 da d4 bc 68 04 18 be 82 b0 4f be
       0.021618247 -0.025983313 -0.14845431 -0.20282176
0001c0 f3 6b 7c 3b 11 4c d2 bd b3 f1 77 bd b3 aa 58 bd
       0.0038516491 -0.10268415 -0.060533237 -0.052897166
0001d0 ef 92 8b bd d6 0c de bc f7 9e 0f be 31 91 83 bd
       -0.06815135 -0.02710573 -0.14025484 -0.064241774
0001e0 89 cf b4 bd 51 4a d7 3d 1f bb 25 be cf 6c b0 3b
       -0.08828647 0.105122216 -0.16184662 0.0053840647
0001f0 fe b2 9a bd 71 67 27 be b6 b8 20 bd bb d5 17 bd
       -0.07553671 -0.16348054 -0.039238654 -0.037069064
000200 d2 59 2d bd 27 0d ef bd d4 d0 9a 3c 4e 19 f1 3d
       -0.042321987 -0.116724305 0.018898405 0.117724046
000210 75 84 7d 3d c4 29 b5 bd 3f 51 7c 3c 27 50 16 bd
       0.0618939 -0.08845857 0.01540023 -0.036697533
000220 7a 03 32 bd 0c 5a cc bc ff 6e fc bc 97 9a 12 bd
       -0.043460347 -0.024945281 -0.030814646 -0.03579196
000230 0d c9 ad bd 44 a4 63 3d e0 ae a4 3b 22 28 f6 3d
       -0.08485613 0.055576578 0.0050257295 0.120193735
000240 0e 4a 00 bc 9a 4d 0f bd cc 33 f4 bd 9c c5 a7 3d
       -0.007830156 -0.034986116 -0.11923942 0.08191988
000250 d7 d4 aa bd f0 27 6d 3d cb 71 c8 3c c7 e0 3f 3d
       -0.08341377 0.057899415 0.024468323 0.046845224
000260 57 58 81 bd aa a2 f6 3c 34 97 a3 bd 65 2c 3a 3b
       -0.063156776 0.030106861 -0.07987824 0.002840781
000270 3e 37 d8 bd f0 6b 65 bb 50 26 61 ba 93 1a a2 3b
       -0.105574116 -0.0035006963 -0.0008588778 0.0049470155
000280 ca 13 aa 3c 9a 5f c7 3c 0a e3 99 3d a9 9d 31 3b
       0.02076139 0.024337579 0.075140074 0.002710203
000290 94 c7 14 bc 27 c6 79 bc 78 ce a3 bd f0 6d ea 3d
       -0.009080786 -0.015244997 -0.07998365 0.1144675
0002a0 75 c9 b6 3d 72 56 df 3c df 1d c2 bc 47 f6 2c 3c
       0.08925144 0.0272629 -0.023695884 0.010556764
0002b0 46 c8 09 3d 38 a8 06 3c ad 09 64 be e5 7f 8c bd
       0.03363826 0.008218817 -0.22269316 -0.068603314
0002c0 db be 9e bd df 10 3b 3c 3c 66 a2 bd 11 ac a3 bc
       -0.077512465 0.011417597 -0.07929656 -0.019979509
0002d0 9b 14 83 bd 2d ef 11 3d af e3 71 bc d6 82 13 3d
       -0.064004146 0.035628486 -0.014763757 0.036013447
0002e0 9a bd d3 bd 13 3f eb bb 3e 77 1d 3c c6 f8 4f be
       -0.10338898 -0.00717915 0.009610949 -0.20309743
0002f0 cd ad 3e bd ed ef 28 be 55 15 a9 3d 5d a0 c5 bd
       -0.046552468 -0.16497774 0.08256022 -0.096497275
000300 26 a9 5b bd cb a7 80 3d fa fc 00 bd 80 24 50 3c
       -0.05362811 0.06282004 -0.031491257 0.012704015
000310 1d 1f 01 bd a4 53 bf bd 51 59 47 3c ca 6c 54 bd
       -0.031523813 -0.09342125 0.012167291 -0.05186156
000320 d9 1d 54 bd 14 b3 a5 bd ab 8e c7 3c e4 de 97 3d
       -0.051786277 -0.08090797 0.024360022 0.0741556
000330 2e 76 43 bd 51 75 c8 3c 98 d8 12 3d 22 71 bb 3c
       -0.047720127 0.024470003 0.03585109 0.022881094
000340 2c 5a 8b bc 7f 22 b4 bc 1a 3b ad 3c df f1 63 bc
       -0.01701077 -0.021989105 0.021146346 -0.013912647
000350 af 9f 77 bd b0 87 a9 3c 80 1a 10 be 04 cd 95 3b
       -0.06045502 0.020694584 -0.14072609 0.004571559
000360 28 61 1f bd 31 4e f5 3c 48 ab a7 3d 09 10 05 bd
       -0.038911015 0.029944511 0.08186966 -0.032485995
000370 66 87 e6 bb fb d3 f1 3b f1 98 bd bb 7b 6a 17 3c
       -0.0070351837 0.0073800064 -0.0057860543 0.0092416955
000380 d2 b6 a5 bd 3b 92 49 be 32 7d c2 bc 17 ad 4d bd
       -0.08091511 -0.19684689 -0.023741338 -0.0502139
000390 d3 ee 73 bd 0a 6d 2a bd aa 11 4e bb 12 f2 08 3c
       -0.059553932 -0.041607894 -0.0031443634 0.008358495
0003a0 93 0d 43 3d ec 6d d0 bb 0a df 07 bd 61 aa a3 bd
       0.047620367 -0.00636076 -0.03317169 -0.079914816
0003b0 99 f8 92 3c 30 93 26 3e 69 93 87 3d 75 28 0a bd
       0.017940806 0.16267085 0.06619913 -0.03372999
0003c0 ca 1d 5d 3d 05 32 14 3b ac b1 89 3d fc 8e e6 bd
       0.053983487 0.0022612822 0.06723341 -0.11257741
0003d0 2b f7 c8 3d dd b2 cf bd eb ca 2f bd 40 1b b6 bc
       0.098127685 -0.10141537 -0.042918127 -0.02222979
0003e0 d6 11 d6 3c 93 60 3c be c6 4a 8b 3c 52 65 13 bd
       0.026131552 -0.18396215 0.017003428 -0.0359853
0003f0 2c a5 91 be c8 77 fd 3d 19 cc c0 bb 77 35 9d 3c
       -0.2844633 0.12376362 -0.0058837053 0.019190533

layers.2.weight f4 [256, 121]
000000 fd f1 28 3b aa 8c 14 3e ab b5 25 3e 97 dc 8a 3e
       0.0025779002 0.14506784 0.16182582 0.27121422
000010 da b8 00 3f 62 40 99 3e a2 fb 9e 3e 4e df 70 3d
       0.5028206 0.29931933 0.31051356 0.05880671
000020 63 dd 72 39 1b 3b 5a bc 51 4e 0b be d6 4c cb 3d
       0.00023161391 -0.013319756 -0.13604094 0.09926765
000030 83 87 06 be c0 88 d2 bd 87 a1 8f 3c 1b 79 cc 3e
       -0.13137631 -0.10279989 0.017533077 0.39936146
000040 3a 28 6d 3e b6 0a 1f 3e c2 44 9d 3d e5 cd 34 3e
       0.23159876 0.1553143 0.0767913 0.17656668
000050 ed 23 bf 3e 42 93 58 3d 56 62 bf bd ff eb 02 be
       0.37332097 0.05287481 -0.09344928 -0.12785338
000060 9a aa 33 3c 0f 6f 95 3c e4 f3 eb 3c 3a c8 c0 3d
       0.010965968 0.018241433 0.02880282 0.0941319
000070 0d 99 92 bd 86 74 36 3e 81 f7 89 bd b8 64 50 bd
       -0.07158098 0.17817888 -0.06736661 -0.050877303
000080 37 32 99 be f1 cf a5 bd 52 6f 32 3e 4a 94 56 3e
       -0.29921123 -0.08096302 0.17425278 0.20955005
000090 ad 8b c1 3c c7 29 19 3e 67 f5 1a 3e d7 d4 8e be
       0.023626173 0.14957343 0.15132676 -0.2789676
0000a0 84 f4 f1 3e 16 24 75 bd fe e4 ed be f1 4e 6a bc
       0.47256863 -0.059848867 -0.4646377 -0.014301048
0000b0 a9 60 7c be 45 c6 4d 3d 8e 59 a8 3e 17 a6 8d 3e
       -0.24646248 0.050237913 0.32880825 0.2766578
0000c0 bd d6 1c 3e 29 9f 9d 3e 66 8b 5f 3e 77 d4 fd bc
       0.15316291 0.30785492 0.2183052 -0.0309851
0000d0 2f b5 29 3d 71 a6 64 3e 8e 68 49 3d cf 75 4a bc
       0.041432556 0.22329117 0.049171977 -0.012357189
0000e0 97 de c4 3d a8 fe 91 3d 18 e2 e3 bc 6a cd e8 3d
       0.09612768 0.0712865 -0.02781777 0.113673046
0000f0 c2 53 39 bd a4 b8 61 bd 39 c3 dc be bf 2a 8f be
       -0.045245893 -0.055107728 -0.43117693 -0.279623
000100 49 e0 83 3e 06 30 0b 3e 68 43 cf bd 79 f5 8c 3e
       0.25757053 0.13592538 -0.101202786 0.2753103
000110 cb 18 0c 3f 6b b0 12 3e 53 25 05 3e c8 5e db bd
       0.5472533 0.1432511 0.1300252 -0.107114375
000120 c7 5d 5c 3e f1 56 9e bb 89 6d 69 3e 19 a4 13 be
       0.21520148 -0.0048321416 0.2279569 -0.14418067
000130 8f 01 3c be 3b 6a 24 3f 0c 82 be bd f1 64 97 3d
       -0.1835997 0.64224595 -0.09302148 0.073923
000140 49 63 13 be 21 b0 d3 3d ff e3 7d 3d 67 f1 2b 3e
       -0.14393343 0.10336328 0.061985012 0.16791306
000150 36 23 97 3d 01 b4 4a bc cc c9 47 3e f3 ad 1f 3e
       0.07379763 -0.012372018 0.19510573 0.155937
000160 d5 76 ac bc 52 c1 6a 3e b6 73 7b bd 20 4d a6 be
       -0.021052757 0.22925308 -0.061389647 -0.32480717
000170 fb f2 94 3e 7c 36 2c 3c 55 e2 41 bc e8 04 c0 3d
       0.2909163 0.010511037 -0.011833747 0.09375936
000180 3c 92 ba 3d 6c d2 52 3e 04 06 7f 3e 7c 04 96 bd
       0.09109923 0.20588082 0.24904639 -0.07325074
000190 10 e1 ca bc 6c 27 22 bc d1 6d 50 be 59 97 87 3e
       -0.024765521 -0.009897094 -0.20354392 0.26482657
0001a0 78 8a 57 3e f2 e1 c8 3c 1b 98 3e bc 78 ea b3 3d
       0.21048915 0.024521802 -0.011632944 0.08784956
0001b0 ac 00 04 3f b5 ae 6c 3e 9e 57 a3 3e 21 ea 0d 3e
       0.51563525 0.2311352 0.31902784 0.13858844
0001c0 25 1f 1f 3d ee 9c 94 3e e1 70 56 3e 3a 35 59 3e
       0.03884806 0.29025978 0.20941497 0.2121171
0001d0 e6 4b 83 3e 62 22 c5 3e cb b3 fb 3e ab 3e a0 3d
       0.25643843 0.38502795 0.4916061 0.07824453
0001e0 9d 02 0b bd c1 8f 69 be c8 36 38 be 47 fb 5c be
       -0.03393804 -0.22808744 -0.17989647 -0.2158023
0001f0 a0 d4 3d 3e 1e b8 6e 3e ea ba 2b 3d 13 ed fd 3c
       0.18538141 0.23312423 0.041926302 0.030996835
000200 94 5e 4d bd 41 56 f8 3d ee 97 1c bc c4 1a a7 3c
       -0.050139025 0.121258266 -0.009557707 0.020398505
000210 78 3d 70 be 45 34 1c bd 8d 98 5c bd 6c 7b df 3d
       -0.23460948 -0.038135786 -0.05385642 0.10912213
000220 89 79 4f bd 8a b3 2c 3e a7 53 e0 3d 65 c8 df be
       -0.050653014 0.16865364 0.109534554 -0.43707576
000230 80 e8 a8 bd 7f 60 50 3e 58 05 96 bd 9c 6d 56 bd
       -0.08247471 0.2034931 -0.07325238 -0.052350625
000240 0f fe 8b bd 56 63 ae 3e 1e 4d 98 be 06 e8 77 be
       -0.06835567 0.34060162 -0.29746336 -0.24209604
000250 f9 ab 5a bd 23 ea b8 be 38 cf c7 3d 1e a7 75 3c
       -0.053386662 -0.36116132 0.09756321 0.014993457
000260 52 31 9f 3e 8b 7d 24 be f5 61 c1 3d 58 1e 13 be
       0.31092316 -0.16063516 0.09442512 -0.14367044
000270 7c 36 3d 3d b9 7f 10 3e 3e b2 ee bd 44 61 e9 bd
       0.04619454 0.14111222 -0.11655091 -0.11395505
000280 d7 05 9d 3d 33 99 28 3e 57 b6 dc 3d 78 d7 e0 bd
       0.076671295 0.16464691 0.10776966 -0.109785974
000290 0b 21 53 3d 82 66 f8 3d a6 12 03 bd b3 92 9b bc
       0.051545184 0.12128927 -0.032000206 -0.01899085
0002a0 e9 8e 89 bd 4f ce 9d be 2b 91 a4 3b dc 47 1b bb
       -0.06716711 -0.30821463 0.005022188 -0.0023693955
0002b0 fd d8 6d be ce 49 8d bd 92 9a 0d be 17 6e 70 be
       -0.23227306 -0.06898843 -0.13828495 -0.23479496
0002c0 2c be 08 be 46 3a 1d 3d 9e a5 c6 3d 0a 3a 26 be
       -0.13353795 0.038385652 0.09699558 -0.16233078
0002d0 bb a5 dc bd f9 23 16 be f0 b4 67 3e 7f 07 0b be
       -0.10773798 -0.1466216 0.22627616 -0.13577078
0002e0 25 ec ac 3d 9d ea 2a 3c bb 4f 91 3e ad ca 4b be
       0.084434785 0.010431913 0.28381142 -0.19901533
0002f0 8c b6 e1 bd 03 c4 04 3e 37 eb 88 bd 29 ed 86 be
       -0.11021146 0.12965398 -0.06685489 -0.26352814
000300 3b 6c a5 3e c2 15 02 3d d2 48 b8 bd fc cc 0d bd
       0.32309136 0.03175903 -0.08998264 -0.034619316
000310 63 f5 72 3e ef 58 30 3c a6 d4 63 3e 20 f9 3f 3b
       0.2372642 0.010763391 0.22249088 0.0029292777
000320 90 64 e9 bd d1 34 93 3d c1 17 29 be 8c b7 0b be
       -0.11396134 0.07187808 -0.16512968 -0.13644236
000330 d0 0a 19 3e 98 1a 3b 3e 53 cb e5 bd d1 73 55 3e
       0.14945531 0.18271863 -0.11220422 0.20844962
000340 6c 35 fa bc 07 1c f7 bd 5d f4 43 be 47 51 6d be
       -0.030543052 -0.12065893 -0.19136186 -0.23175536
000350 76 18 b3 3b 61 90 6c 3d cd 4c 43 bc 3c ab 2d 3d
       0.0054655625 0.057754878 -0.011920166 0.04239963
000360 df 32 e2 bd 57 c8 c2 bd 90 c1 28 be 7f 29 8d bd
       -0.11044859 -0.09510868 -0.16480088 -0.068926804
000370 54 87 74 be 8d 2e 47 bd 21 97 18 be 00 92 83 3e
       -0.23879749 -0.04862838 -0.14901401 0.25697327
000380 ee b8 9a bd 14 85 c0 3d 88 c8 22 bd cf 0c 08 3d
       -0.07554804 0.09400383 -0.039742023 0.03321534
000390 74 ef d3 3d 17 3b e1 3d 68 82 09 be f6 9b 89 3e
       0.103484064 0.109975986 -0.13428652 0.268768
0003a0 af 88 1a 3d 96 b3 3f 3d c9 14 db bd d9 fd 11 be
       0.037728008 0.046802126 -0.10697324 -0.14256991
0003b0 a8 af 3b be b2 a7 17 bf 4b 74 ec be f4 09 ff be
       -0.18328726 -0.5924026 -0.46182474 -0.4981228
0003c0 88 bc 5d bd e8 3b 34 be cf 2e b0 bd 00 cb e6 bd
       -0.054134876 -0.17600977 -0.08602678 -0.11269188
0003d0 10 14 42 bf e4 ae fd be 5c ce 28 bf e7 0d d2 be
       -0.7581186 -0.49547493 -0.6593988 -0.41026232
0003e0 3e 4b 03 bf a9 cb 62 be db e8 34 bf bd c9 c7 be
       -0.51286685 -0.22148003 -0.7066781 -0.39021102
0003f0 5e 93 d9 3d 21 ea 67 3e 64 66 37 bf 29 dd 0d bd
       0.10623811 0.22647907 -0.7164061 -0.034634743

layers.2.bias f4 [121]
000000 18 b3 ae be c2 e3 b5 bf d3 ad a1 bf 26 73 af bf
       -0.34121013 -1.4210131 -1.2631172 -1.3707016
000010 b7 85 94 bf 01 20 b3 bf 16 83 ad bf 1d c5 89 bf
       -1.1603307 -1.3994142 -1.3555629 -1.0763279
000020 de be ac bf f6 07 96 bf a9 77 ab bf 1a 8b b0 bf
       -1.3495748 -1.172118 -1.3395892 -1.379245
000030 c1 c6 2c 3d 29 43 ab bf 75 c4 b1 bf d0 39 88 bf
       0.042181734 -1.3379871 -1.3888079 -1.0642643
000040 3f 16 ac bf e9 08 a4 bf 02 af b0 bf 34 f5 66 bf
       -1.3444289 -1.2815219 -1.3803408 -0.902179
000050 e4 50 a6 bf 6e 50 df be 4b 79 a4 bf 87 9c 98 bf
       -1.2993436 -0.4361605 -1.2849516 -1.1922768
000060 cf 52 ac bf 3b 24 c9 be 2a c0 66 be 82 3b a4 bf
       -1.3462771 -0.39285454 -0.22534242 -1.283066
000070 bb 77 8b 3d 0d e4 b0 bf f6 e7 39 be ec 60 a3 bf
       0.06809946 -1.3819596 -0.18154892 -1.2763953
000080 31 3a fe 3e 9c 05 bf bf e8 3b c0 bf 52 b8 bf bf
       0.49653772 -1.4923587 -1.5018282 -1.4978125
000090 af 29 c3 bf c8 95 b0 bf 96 c1 89 bf 70 7e ac bf
       -1.5247096 -1.379571 -1.0762203 -1.3476086
0000a0 74 76 8c bf df 0e ab bf 46 c7 b8 bf 0c 64 b8 bf
       -1.0973649 -1.3363913 -1.4435813 -1.4405532
0000b0 58 cc b6 bf a7 a5 a7 bf e5 d2 78 bf 90 18 70 bf
       -1.4281111 -1.3097428 -0.971968 -0.9378748
0000c0 6c 11 b5 bf a1 e7 bd bf 2b 68 8f bf 0e 66 a6 bf
       -1.4145942 -1.4836313 -1.1203665 -1.2999895
0000d0 f7 24 92 bf 28 f8 8e bf 30 95 a9 bf 99 74 a5 bf
       -1.1417531 -1.1169481 -1.3248653 -1.2926208
0000e0 6f 34 a8 bf 09 d2 be bf 2b 80 ae bf b7 6a a5 bf
       -1.3141001 -1.4907848 -1.3632864 -1.2923192
0000f0 c5 03 90 bf c5 1b a9 bf b6 4f b9 bf 28 68 ad bf
       -1.125115 -1.32116 -1.4477451 -1.3547411
000100 41 8a c0 bf aa c9 a1 bf d3 ef da be 84 df a0 bf
       -1.5042192 -1.2639668 -0.42761096 -1.2568212
000110 63 b6 4e bf f4 0d c5 bf a4 e3 b4 bf 51 55 b1 bf
       -0.8074705 -1.5394883 -1.413197 -1.3854162
000120 23 5b a9 bf e4 08 a4 bf b9 7f b3 bf fe dc ad bf
       -1.3230938 -1.2815213 -1.4023353 -1.3583066
000130 14 66 9a bf 3b e8 95 bf 8c 35 a6 bf dc 2c a5 bf
       -1.2062402 -1.1711496 -1.2985091 -1.2904315
000140 8a f6 ab bf 22 a0 43 bf ba 4a a2 bf 69 7b c0 bf
       -1.3434613 -0.7641622 -1.2679055 -1.5037662
000150 90 1d b7 bf e2 65 0a be 61 55 a1 bf 30 e0 af bf
       -1.4305897 -0.13515428 -1.260418 -1.3740292
000160 41 22 a4 bf 64 92 b3 bf b1 88 bd bf 0f 0b aa bf
       -1.2822953 -1.402905 -1.480734 -1.3284625
000170 f9 50 9a bf be 2f b2 bf d2 48 ac bf 75 69 90 bf
       -1.2055961 -1.392082 -1.3459723 -1.1282183
000180 ac be b5 bf 2a 09 72 bf 07 74 89 bf 4c 87 b0 bf
       -1.4198813 -0.94545233 -1.0738534 -1.3791289
000190 5e d4 46 bf 69 d4 a9 bf 95 ec b1 bf be 30 af bf
       -0.77667797 -1.3267947 -1.3900324 -1.368675
0001a0 18 be b5 bf 29 52 ab bf 99 6c b1 bf 79 f2 a9 bf
       -1.4198637 -1.3384448 -1.3861266 -1.3277122
0001b0 40 d8 56 bf b7 08 70 bf 64 71 98 bf 75 79 b4 bf
       -0.8392372 -0.937633 -1.1909604 -1.4099566
0001c0 66 0e a7 bf b0 40 af bf 20 2a b0 bf b2 18 8b bf
       -1.3051269 -1.3691616 -1.3762856 -1.0866911
0001d0 49 d5 a4 3e 68 1c ad 3c 35 77 59 3e 0e f7 19 bf
       0.32193974 0.02113171 0.2123688 -0.601426
0001e0 ca 55 9e bf
       -1.2369931
